Starter Model V2/counting_model.ckpt (torch, 615188 bytes, 7 tensors)

model.0.weight f4 [16, 1, 3, 3]
0.26418594 0.28390124 -0.07402658 0.31402186 -0.06772099 0.07390691 -0.16143309 0.2007423
0.30057135 -0.23908654 0.30681473 0.08431826 0.24739987 0.05100311 0.1713539 -0.036400102
0.26577297 0.045703202 -0.16953762 0.07039767 -0.1568041 -0.053260207 -0.14827338 0.193565
-0.2748067 -0.1676075 -0.104978636 -0.22543798 -0.0064675137 -0.34449258 0.26852378 -0.29209867
0.24762006 0.053642314 -0.101326875 0.21166407 0.05363097 0.2750705 0.041434336 -0.10049923
0.10049137 -0.080193385 0.14871532 0.31149378 0.20938112 -0.10943141 0.22865929 0.1338823
0.16097757 -0.20572071 -0.31422326 -0.13086396 -0.25932056 0.29218405 0.10585204 0.15244621
0.13415928 0.0017299787 0.26967624 -0.21688738 0.021236094 -0.22120376 0.11021592 -0.14002573
0.07341377 -0.09625044 0.29435718 -0.17536336 -0.19859129 -0.15861614 0.33345675 0.15240715
0.33899316 -0.2910072 -0.34866056 -0.18361515 -0.23220651 0.109828204 0.19698156 0.32378355
-0.15187497 -0.26551765 0.20144297 -0.0574697 0.14029934 -0.09844809 0.24754049 -0.30068386
-0.19858734 0.16301791 0.07002864 -0.09233153 0.17843722 0.22529133 -0.25060788 -0.20062664
0.30454734 -0.12566228 -0.14282613 -0.35615706 -0.2174564 0.028869651 -0.073314466 -0.25924048
-0.037172433 -0.25992185 -0.3083791 -0.2270861 -0.29258534 -0.20885363 0.3614686 0.045760214
0.085049644 -0.30492258 -0.23958738 -0.12893122 0.045498416 -0.31816724 -0.15690768 -0.22092098
-0.02122808 -0.13181454 -0.04854355 -0.24750815 -0.24167588 -0.22766334 -0.14359692 -0.2613361
0.29071397 -0.09195109 0.28596044 0.11510879 -0.29321367 0.23771532 -0.08148404 -0.17906637
-0.2939752 -0.3553743 0.040540405 -0.09395978 0.10604185 -0.3187272 0.2209097 -0.27132848
00000000: 6143 873e 815b 913e 3f9b 97bd 79c7 a03e
00000010: 4db1 8abd 825c 973d b74e 25be 648f 4d3e
00000020: 7de4 993e 1ad3 74be d216 9d3e 0daf ac3d
00000030: 6456 7d3e a3e8 503d 6677 2f3e 4618 15bd
00000040: 6513 883e 4833 3b3d 459b 2dbe a72c 903d
00000050: 4191 20be 6027 5abd fad4 17be e735 463e
00000060: 77b3 8cbe 4da1 2bbe 0aff d6bd 37d9 66be
00000070: 70ed d3bb 5561 b0be f37b 893e f58d 95be
00000080: 1d90 7d3e 0bb8 5b3d 7784 cfbd 77be 583e
00000090: 26ac 5b3d 0ad6 8c3e 0db7 293d 8ad2 cdbd
000000a0: 6bce cd3d 6e3c a4bd d448 183e 1d7c 9f3e
000000b0: 0168 563e 931d e0bd a925 6a3e 7118 093e
000000c0: 4ed7 243e 73a8 52be dfe1 a0be 3401 06be
000000d0: aac5 84be 2699 953e f4c8 d83d dc1a 1c3e
000000e0: 0d61 093e 74c0 e23a 0113 8a3e ba17 5ebe
000000f0: 51f7 ad3c 3d83 62be e2b8 e13d e862 0fbe
00000100: f559 963d f31e c5bd fcb5 963e 7492 33be
00000110: 845b 4bbe 456c 22be d8ba aa3e 9f10 1c3e
00000120: 8390 ad3e e5fe 94be a383 b2be 9c05 3cbe
00000130: 8bc7 6dbe 9ced e03d 89b5 493e f5c6 a53e
00000140: 1d85 1bbe eef1 87be 1147 4e3e 5965 6bbd
00000150: a1aa 0f3e 279f c9bd 417b 7d3e 3cf3 99be
00000160: 7b5a 4bbe 2bee 263e 2d6b 8f3d 5018 bdbd
00000170: 3fb8 363e c5b2 663e ad4f 80be 1271 4dbe
00000180: a1ed 9b3e 9dad 00be 0341 12be 385a b6be
00000190: e4ac 5ebe 0c80 ec3c e525 96bd 2bbb 84be
000001a0: 1f42 18bd 7a14 85be dee3 9dbe 4289 68be
000001b0: bfcd 95be badd 55be 6a12 b93e 106f 3b3d
000001c0: 822e ae3d d01e 9cbe 6556 75be 8c06 04be
000001d0: 8c5c 3a3d d1e6 a2be 68ac 20be 1c39 62be
000001e0: 83e6 adbc 64fa 06be 9ad5 46bd c772 7dbe
000001f0: e279 77be 9420 69be 120b 13be d8cd 85be
00000200: 76d8 943e da50 bcbd 6869 923e 28be eb3d
00000210: 1a20 96be a56b 733e 1be1 a6bd 2d5d 37be
00000220: eb83 96be 9ff3 b5be b20d 263d fc6d c0bd
00000230: 782c d93d 3630 a3be 2736 623e 91eb 8abe

model.0.bias f4 [16]
-0.048636403 0.07176653 0.18522115 0.2638524 0.30573866 -0.25893632 0.08878294 -0.114259996
-0.01650691 -0.21323016 0.29972258 -0.23058333 0.19187275 0.12305796 0.10483937 -0.16738278
00000000: f736 47bd 55fa 923d 9daa 3d3e a917 873e
00000010: c789 9c3e 4d93 84be d4d3 b53d 2501 eabd
00000020: 8039 87bc 0259 5abe 3d75 993e 091e 6cbe
00000030: 4a7a 443e d005 fc3d 06b6 d63d 6466 2bbe

model.3.weight f4 [32, 16, 3, 3]
0.07103984 0.0070550316 0.0070073865 -0.07384865 0.03268483 -0.011408044 -0.03718164 0.07419382
0.02101034 -0.053739075 -0.049637794 -0.0025890516 0.04525636 -0.020187689 -0.0427975 -0.02699595
-0.059276838 0.032114033 0.08804562 -0.05053154 0.04203538 0.045180954 0.020197093 -0.04831143
0.043784503 0.03813993 0.017357744 0.0009011385 -0.004848454 0.01820132 0.005752527 -0.005709686
0.059956543 0.083023675 -0.0035647769 -0.023914358 -0.0033079393 -0.011407465 0.021195078 0.023907574
-0.07460413 -0.027359981 0.07313173 0.035159066 -0.0015013363 -0.07279996 -0.048829906 -0.05877173
-0.0564189 -0.011333748 -0.026947375 0.03201221 -0.09526191 -0.06831753 -0.01803407 0.06763723
0.0093955705 -0.022279179 0.032500792 -0.029043742 -0.047882803 0.06627294 -0.03184554 0.037153225
-0.05278849 0.052837975 0.120058715 0.05727984 -0.060376476 -0.03244582 -0.060100242 0.050791897
0.087796226 0.10547324 0.05557477 0.06493068 0.038702667 -0.07288577 -0.038651127 -0.0673194
0.013250154 -0.03508043 0.011189842 0.0019667211 -0.00613875 -0.052911233 -0.07448051 0.038149264
-0.022389786 0.039027914 -0.012415079 -0.060123734 -0.015833814 -0.032489788 -0.028199848 -0.07951873
0.050415996 -0.054241836 0.047309544 0.060607504 0.0925891 -0.053980596 0.06170641 -0.03691525
0.0033148674 0.07304976 -0.032798234 -0.026094114 -0.00052704546 -0.03892615 0.07122596 -0.075416625
0.06041907 0.06176775 0.07926745 -0.026218161 -0.08735451 0.0435945 0.078838855 -0.083061986
-0.01339845 -0.044487823 -0.034481462 -0.04675268 -0.053617418 -0.049828622 -0.08885007 0.07764996
0.09251697 -0.014541859 0.004673098 -0.018558824 -0.06929955 -0.071275726 0.032464333 -0.023418954
-0.027141152 -0.019246748 -0.020856913 -0.021321757 -0.035263646 -0.031637568 -0.05070186 -0.08299296
-0.06690257 0.07239756 -0.030624952 0.025362309 -0.03032167 0.0019847862 0.082436055 0.03984383
-0.07692437 0.037987996 0.08498496 0.025301322 0.061029974 0.08258862 -0.015470174 0.021999214
-0.058387566 -0.020035174 0.06688313 0.04528873 -0.036982045 -0.07578674 -0.04135747 -0.056195244
-0.09377142 -0.008586157 0.07714256 0.02035497 -0.06264267 -0.06802675 0.045050155 -0.05454516
-0.004221001 0.042399067 -0.027635468 0.008164596 -0.002667027 -0.014373968 -0.03990266 -0.06956023
-0.06591695 -0.047322534 0.08518365 -0.037907604 -0.056845065 0.027694153 0.06771559 0.09613446
0.04394963 0.07737712 -0.047817916 -0.039048854 0.038600743 0.006935391 -0.045309953 0.09294912
-0.01697012 -0.04344781 -0.06827224 0.0043793037 0.0395825 0.01772228 0.013926889 -0.08599147
-0.09540143 0.00053214765 0.07781317 0.055706464 -0.053237014 0.013060839 -0.02571265 -0.0021863366
0.018072411 0.044948753 0.059029803 -0.0651034 0.07943059 -0.044108655 0.04740289 0.09782318
0.023895899 0.11548511 -0.012050015 0.04703134 0.07112481 -0.055104382 0.02054346 0.017221544
0.06658909 0.07147508 0.032521885 -0.0289087 -0.055937532 0.015787369 0.0394989 -0.03216533
-0.019403534 0.06961318 0.0126560675 0.0047338237 -0.032796185 -0.0712636 -0.09819503 -0.026520299
-0.016915862 -0.027627977 -0.008118693 -0.012751851 0.09004882 0.03985912 0.08367308 -0.0398319
00000000: 567d 913d e52d e73b 389e e53b f63d 97bd
00000010: 87e0 053d cee8 3abc c64b 18bd eef2 973d
00000020: e01d ac3c 811d 5cbd 0051 4bbd 14ad 29bb
00000030: bc5e 393d a760 a5bc 6e4c 2fbd 9c26 ddbc
00000040: 45cc 72bd 018a 033d 4351 b43d 29fa 4ebd
00000050: 4a2d 2c3d aa0f 393d 6074 a53c 35e2 45bd
00000060: 6157 333d 9e38 1c3d d431 8e3c 623a 6c3a
00000070: c8df 9ebb ef1a 953c b27f bc3b 5118 bbbb
00000080: fe94 753d 5108 aa3d 089f 69bb 0be8 c3bc
00000090: 03ca 58bb 60e6 3abc 4da1 ad3c d1d9 c33c
000000a0: 0dca 98bd 0a22 e0bc 17c6 953d f402 103d
000000b0: 7dc8 c4ba 2518 95bd de01 48bd a0ba 70bd
000000c0: 8117 67bd 2fb1 39bc bec0 dcbc 3c1f 033d
000000d0: ad18 c3bd 10ea 8bbd 30bc 93bc 6385 8a3d
000000e0: e1ef 193c d382 b6bc 8d1f 053d 24ed edbc
000000f0: c220 44bd 1bba 873d 7870 02bd fb2d 183d
00000100: be38 58bd a26c 583d 58e1 f53d 449e 6a3d
00000110: 534d 77bd e8e5 04bd ac2b 76bd 2a0b 503d
00000120: 82ce b33d 5b02 d83d 5fa2 633d 60fa 843d
00000130: b086 1e3d 2245 95bd a550 1ebd c1de 89bd
00000140: 2d17 593c 7fb0 0fbd 9955 373c 1be4 003b
00000150: 9127 c9bb 73b9 58bd 3d89 98bd 6742 1c3d
00000160: c96a b7bc bcdb 1f3d 9e68 4bbc 4e44 76bd
00000170: eab5 81bc 0314 05bd 5e03 e7bc b7da a2bd
00000180: 0181 4e3d b02c 5ebd a7c7 413d 933f 783d
00000190: 5b9f bd3d c21a 5dbd dcbf 7c3d 7234 17bd
000001a0: 3f3e 593b 1d9b 953d 7157 06bd 53c3 d5bc
000001b0: 6c29 0aba 0771 1fbd ebde 913d 0874 9abd
000001c0: fd79 773d 2e00 7d3d f956 a23d 78c7 d6bc
000001d0: ece6 b2bd 2590 323d 4476 a13d 671c aabd
000001e0: 2c85 5bbc dd38 36bd 6f3c 0dbd bd7f 3fbd
000001f0: f09d 5bbd 1919 4cbd 07f7 b5bd f106 9f3d
00000200: 8a79 bd3d fa40 6ebc ca20 993b ad08 98bc
00000210: ecec 8dbd 02f9 91bd 52f9 043d 1bd9 bfbc
00000220: 1f57 debc 5bab 9dbc 1edc aabc f7aa aebc
00000230: 9d70 10bd 6596 01bd c1ac 4fbd 37f8 a9bd
00000240: 3704 89bd 2c45 943d 2ee1 fabc 9ec4 cf3c
00000250: 2765 f8bc 3013 023b 3cd4 a83d 4933 233d
00000260: 868a 9dbd 4d99 1b3d 980c ae3d b844 cf3c
00000270: 91fa 793d 3924 a93d 9d76 7dbc b237 b43c
00000280: cd27 6fbd ce20 a4bc 06fa 883d ad80 393d
00000290: 7c7a 17bd 1436 9bbd 7366 29bd fc2c 66bd
000002a0: 3b0b c0bd f4ac 0cbc ebfc 9d3d 77bf a63c
000002b0: cd4a 80bd 9c51 8bbd 8386 383d bf6a 5fbd
000002c0: 5350 8abb a5aa 2d3d c763 e2bc ccc4 053c
000002d0: 4ac9 2ebb cb80 6bbc f970 23bd 9875 8ebd
000002e0: 77ff 86bd 46d5 41bd c474 ae3d 0145 1bbd
000002f0: 5fd6 68bd d9de e23c 79ae 8a3d 25e2 c43d
00000300: 8704 343d e577 9e3d b8dc 43bd b1f1 1fbd
00000310: d01b 1e3d 4742 e33b ee96 39bd 1c5c be3d
00000320: ec04 8bbc 55f6 31bd 51d2 8bbd 4380 8f3b
00000330: 4221 223d 512e 913c 9b2d 643c 4c1c b0bd
00000340: d361 c3bd d37f 0b3a 835c 9f3d 762c 643d
00000350: 0e0f 5abd 21fd 553c 56a3 d2bc a448 0fbb
00000360: 980c 943c 2f1c 383d 3cc9 713d ee54 85bd
00000370: 81ac a23d 47ab 34bd 8829 423d 8557 c83d
00000380: 55c1 c33c 7583 ec3d 6d6d 45bc efa3 403d
00000390: e2a9 913d 22b5 61bd c24a a83c 3214 8d3c
000003a0: dc5f 883d 8761 923d ab35 053d f0d1 ecbc
000003b0: c11e 65bd 8354 813c 99c9 213d cbbf 03bd
000003c0: 29f4 9ebc 5b91 8e3d 655b 4f3c 311e 9b3b
000003d0: 4b55 06bd a6f2 91bd 7a1a c9bd 1941 d9bc
000003e0: 2293 8abc 1154 e2bc 4404 05bc 24ed 50bc
000003f0: 846b b83d 5143 233d cb5c ab3d c626 23bd

model.3.bias f4 [32]
0.023805533 0.04549806 -0.079351395 -0.05239219 -0.07769941 0.035161402 0.057944145 -0.07429376
0.034235895 0.011594883 -0.04546343 0.01620309 0.06185991 0.076590486 0.040254373 -0.018500041
-0.0468161 -0.032825865 0.00044230817 -0.004565476 0.05789135 -0.072709545 0.005562204 -0.029552689
0.0066715777 0.082830384 0.003024029 -0.011071895 -0.028572507 -0.08459195 -0.06549339 0.030856337
00000000: d203 c33c 2c5c 3a3d fc82 a2bd 3199 56bd
00000010: de20 9fbd 6705 103d d756 6d3d 5427 98bd
00000020: f03a 0c3d 77f8 3d3c dd37 3abd 58bc 843c
00000030: d160 7d3d 79db 9c3d c5e1 243d 668d 97bc
00000040: 3dc2 3fbd 6a74 06bd 99e5 e739 fd99 95bb
00000050: 7b1f 6d3d bee8 94bd 2643 b63b 7b18 f2bc
00000060: 409d da3b faa2 a93d ca2e 463b e566 35bc
00000070: e410 eabc 8b3e adbd 6621 86bd 6ec6 fc3c

model.6.weight f4 [64, 32, 3, 3]
-0.032862365 0.048762944 -0.012960728 0.038614158 0.06882916 0.008097989 0.03399887 0.063675664
-0.021116445 0.085398614 -0.035028554 0.07722869 0.014898503 0.023059217 0.052086446 0.01848042
0.0708121 -0.009459087 0.0018729673 0.078376316 -0.011236717 0.084988 0.09526005 0.060951788
-0.010539918 0.013486355 -0.03839256 -0.04184839 -0.015923237 -0.05359863 0.029759027 0.03042451
-0.028898543 -0.02067015 0.051613536 -0.011233673 0.05346145 0.063600354 -0.013447073 -0.043710373
0.07310964 -0.026315903 0.056398667 -0.032034513 0.014380555 0.014610914 -0.006309042 0.043232296
-0.055706147 -0.016957434 -0.011769645 0.040292487 0.025157114 0.035364624 0.024874514 0.05468615
-0.017656479 -0.016775103 -0.00094346027 0.019778678 -0.02190958 0.021306647 0.011452193 0.004940625
0.043382253 0.0011685898 0.032227457 -0.017540088 -0.06040074 0.028131591 0.020366477 0.04303378
0.014724152 -0.006500992 -0.060069337 -0.06374376 0.0066510853 0.03315046 -0.017890817 -0.028140947
0.017300026 -0.034511343 0.023802394 -0.052246027 -0.06091126 -0.033401057 -0.016361883 0.014897435
0.025941372 -0.042651158 -0.012710566 0.026426526 -0.017961375 -0.0012447799 0.046280142 -0.021297505
0.025221417 0.047902994 0.017142557 -0.008539779 -0.044007357 -0.042542305 -0.011417707 0.011516145
0.028059645 -0.006026298 0.04310403 -0.027535655 0.019956585 -0.029442739 0.025403075 0.069600634
0.02096772 0.008404104 -0.017093588 -0.054342583 -0.04085845 -0.045881685 0.03922613 -0.023675183
0.0004486818 -0.050766736 -0.018941369 0.05058096 0.008837599 -0.012434892 0.06468064 0.090629056
0.06603847 -0.0031304643 0.032118138 -0.033647895 -0.005498826 0.06462958 -0.026926983 -0.03069781
0.023746278 0.051631242 -0.058726612 -0.041019857 -0.02661649 0.04239743 0.0317523 0.03543042
0.04797699 -0.009245692 0.042765915 0.0067575467 0.0062528183 -0.019221948 0.028360514 0.025845556
-0.0070358715 0.049701024 -0.011774144 0.009903033 0.050887052 0.03434664 -0.025312549 -0.03015313
0.010433297 -0.0030674287 0.023946619 0.045503713 0.03373858 -0.009943992 -0.042891376 0.0645098
0.0026687249 -0.019516213 -0.036859512 0.06029565 0.045129556 -0.04112457 -0.05128798 0.061998863
0.023521211 -0.008720595 -0.04691558 0.036192268 -0.03282455 0.027797012 -0.05147725 -0.04629613
-0.05483134 0.053499848 0.061511923 -0.046928275 0.045052405 -0.036984082 -0.041949943 0.02746179
0.036196955 0.05138668 0.010263139 0.051930696 -0.04643249 0.026088305 -0.0016715066 0.024067443
0.04014043 -0.02120236 0.057706453 -0.014059994 0.051845573 0.020623054 0.033057194 0.07434615
-0.017730586 -0.052046597 0.06010599 -0.03470571 0.0140161 0.041780263 -0.009729337 0.046156123
0.042489316 -0.008354593 0.0146399615 0.0134159 0.06357815 0.03825018 -0.04139221 0.0053447243
0.0323775 0.037191834 0.016509736 0.018872825 -0.015560804 -0.0005096303 -0.047386516 0.04259903
0.041878015 -0.039207328 -0.053270582 0.041821785 -0.05526617 0.041180395 -0.05584735 -0.035328545
-0.02673037 0.053702503 -0.014901002 0.049296476 0.029886937 0.054795552 0.04936583 0.06584321
0.049483106 -0.018265106 -0.009443128 0.016922906 0.063168 -0.0083884755 -0.040334526 -0.04011649
00000000: b09a 06bd a7bb 473d 3c59 54bc e129 1e3d
00000010: 4df6 8c3d 6dad 043c 6642 0b3d 6368 823d
00000020: 65fc acbc 78e5 ae3d 1a7a 0fbd 132a 9e3d
00000030: da18 743c afe6 bc3c 9958 553d 4064 973c
00000040: ef05 913d 49fa 1abc 5b7e f53a c383 a03d
00000050: 351a 38bc 300e ae3d b317 c33d 95a8 793d
00000060: 9faf 2cbc dff5 5c3c 8441 1dbd 3869 2bbd
00000070: 7371 82bc 3d8a 5bbd 34c9 f33c d23c f93c
00000080: a3bc ecbc 7254 a9bc b768 533d 710d 38bc
00000090: 65fa 5a3d e740 823d 1d51 5cbc a609 33bd
000000a0: 82ba 953d 7394 d7bc 4a02 673d 9f36 03bd
000000b0: 6b9c 6b3c 9d62 6f3c 15bc cebb 5914 313d
000000c0: 212c 64bd 51ea 8abc 78d5 40bc bc09 253d
000000d0: 4b16 ce3c 7fda 103d a3c5 cb3c 96fe 5f3d
000000e0: 52a4 90bc f16b 89bc 8c52 77ba e506 a23c
000000f0: b87b b3bc 478b ae3c fba1 3b3c f7e4 a13b
00000100: 97b1 313d 5e2b 993a f000 043d 3bb0 8fbc
00000110: c466 77bd 3974 e63c 99d7 a63c 3044 303d
00000120: 923d 713c 4606 d5bb 440b 76bd 178c 82bd
00000130: 59f1 d93b c7c8 073d c38f 92bc d887 e6bc
00000140: c9b8 8d3c c45b 0dbd 3dfd c23c eeff 55bd
00000150: 167e 79bd 8ccf 08bd 5b09 86bc 5f14 743c
00000160: 0083 d43c fbb2 2ebd fa3f 50bc 717c d83c
00000170: bc23 93bc e227 a3ba 3f90 3d3d 1b78 aebc
00000180: 259d ce3c ee35 443d 8c6e 8c3c 6eea 0bbc
00000190: 0f41 34bd d740 2ebd 5611 3bbc 37ae 3c3c
000001a0: 57dd e53c 4078 c5bb da8d 303d 7492 e1bc
000001b0: fe7b a33c e631 f1bc 1c1a d03c c78a 8e3d
000001c0: 7fc4 ab3c 5eb1 093c da07 8cbc 5496 5ebd
000001d0: 315b 27bd 6fee 3bbd 94ab 203d 75f2 c1bc
000001e0: 0d3d eb39 c8f0 4fbd ee2a 9bbc fb2d 4f3d
000001f0: 94cb 103c b8bb 4bbc 4977 843d ba9b b93d
00000200: 2d3f 873d 7a28 4dbb 4f8e 033d 60d2 09bd
00000210: 7f2f b4bb 835c 843d fa95 dcbc f979 fbbc
00000220: 8e87 c23c 487b 533d 518b 70bd 7004 28bd
00000230: d30a dabc eda8 2d3d b30e 023d 7d1f 113d
00000240: 8583 443d 3e7b 17bc 502b 2f3d 696e dd3b
00000250: 71e4 cc3b 5977 9dbc 4f54 e83c 0fba d33c
00000260: 2b8d e6bb 4d93 4b3d 57e8 40bc 5540 223c
00000270: f16e 503d 10af 0c3d 435c cfbc b203 f7bc
00000280: 6bf0 2a3c ea06 49bb b32b c43c 1a62 3a3d
00000290: 7731 0a3d 20ec 22bc deae 2fbd b71d 843d
000002a0: c6e5 2e3b 77e0 9fbc 00fa 16bd 92f8 763d
000002b0: c5d9 383d 3d72 28bd 5813 52bd 85f2 7d3d
000002c0: 8eaf c03c d4e0 0ebc 8d2a 40bd 583e 143d
000002d0: 0973 06bd 8fb6 e33c cfd9 52bd 03a1 3dbd
000002e0: d496 60bd a822 5b3d edf3 7b3d dd37 40bd
000002f0: df88 383d 9f7c 17bd b4d3 2bbd 8cf7 e03c
00000300: 4243 143d d77a 523d ba26 283c 48b5 543d
00000310: ff2f 3ebd 24b7 d53c 7416 dbba 1629 c53c
00000320: 4b6a 243d 92b0 adbc 9a5d 6c3d e45b 66bc
00000330: 065c 543d aef1 a83c fb66 073d cb42 983d
00000340: bc3f 91bc d02e 55bd b331 763d 9327 0ebd
00000350: c9a3 653c c821 2b3d cc67 1fbc 340e 3d3d
00000360: 4709 2e3d b4e1 08bc 73dc 6f3c 5dce 5b3c
00000370: 4335 823d 39ac 1c3d e18a 29bd cc22 af3b
00000380: 459e 043d 7756 183d 6d3f 873c 2f9b 9a3c
00000390: bef2 7ebc b698 05ba 5d18 42bd 527c 2e3d
000003a0: 4888 2b3d dd97 20bd 4132 5abd 524d 2b3d
000003b0: c85e 62bd c6ac 283d 31c0 64bd aab4 10bd
000003c0: a6f9 dabc 28f7 5b3d 5523 74bc 1aeb 493d
000003d0: 73d5 f43c 4d71 603d d333 4a3d ced8 863d
000003e0: ccae 4a3d b4a0 95bc 59b7 1abc e8a1 8a3c
000003f0: 395e 813d d16f 09bc d135 25bd 3051 24bd

model.6.bias f4 [64]
-0.03536304 0.007683617 0.008516229 0.05096915 0.046291556 -0.048906837 0.025869314 -0.054837145
-0.03432669 0.019941822 -0.04851366 0.0436553 0.013773515 -0.0019599684 0.021152234 -0.053525258
0.006238494 0.015119233 -0.028811254 -0.02834497 0.01357636 0.041390557 -0.025507709 0.031126982
0.029043442 -0.04829548 -0.056035247 -0.010522091 0.03264794 -0.051913206 -0.044356897 0.036589652
-0.040986694 -0.047385544 -0.013451004 0.054430462 0.034586173 0.026778016 0.004311181 -0.03640165
-0.052023914 0.03119469 0.013407421 0.010900166 -0.03264432 -0.06740145 0.0042945147 -0.020551769
-0.011023561 0.0021727227 -0.037619255 -0.043808185 -0.023922298 0.007935304 -0.042405184 0.05076047
-0.06583547 -0.04721795 0.0071212426 -0.06682726 -0.034433894 0.026240896 -0.04868572 0.014896363
00000000: d6d8 10bd dac6 fb3b a787 0b3c 07c5 503d
00000010: 379c 3d3d 8952 48bd e2eb d33c ea9c 60bd
00000020: 259a 0cbd 085d a33c 42b6 46bd e6cf 323d
00000030: 4faa 613c d072 00bb 7347 ad3c 4d3d 5bbd
00000040: 486c cc3b a9b6 773c 9405 ecbc b633 e8bc
00000050: 626f 5e3c 2589 293d 8bf5 d0bc 03fe fe3c
00000060: 83ec ed3c 7bd1 45bd 3785 65bd d964 2cbc
00000070: d9b9 053d f1a2 54bd 94af 35bd 08df 153d
00000080: aae1 27bd 5817 42bd 9a61 5cbc 7af2 5e3d
00000090: 3baa 0d3d 925d db3c cf44 8d3b e619 15bd
000000a0: 0717 55bd 028c ff3c cdaa 5b3c 9c96 323c
000000b0: 0db6 05bd c509 8abd 00b9 8c3b 2f5c a8bc
000000c0: 2a9c 34bc 3d64 0e3b a616 1abd 3670 33bd
000000d0: b2f8 c3bc 1403 023c 0fb1 2dbd 36ea 4f3d
000000e0: bfd4 86bd 9c67 41bd 5059 e93b bbdc 88bd
000000f0: 8e0a 0dbd 26f7 d63c ad6a 47bd e00f 743c

model.10.weight f4 [1, 129600]
-0.0033242833 -0.003130629 -0.0013357698 -0.0015487378 0.00070176926 -0.0012398234 -0.001334121 -0.0032604751
0.00059656973 -0.0018542024 -0.00015558703 -0.0040412466 -0.00030069242 0.0004925915 -0.0046013724 -0.0027404665
-0.0091509605 -0.0068584178 -0.002257782 -0.006114338 -0.004561935 0.011155478 0.009362794 0.008790831
-0.008495562 0.0011345951 -0.0037790742 -0.0074867597 -0.0047688535 -0.001314459 -0.0024751984 -0.0055630584
-0.003872537 -0.0037049458 0.00077652565 -0.0035672016 -0.00452207 -0.0038988944 -0.003136753 -0.0019026061
-0.0037224328 -0.0005944461 -0.0022736364 -0.0029740946 -0.003239028 -0.0048971227 -0.0017814479 -0.0043402626
-0.0036975206 -0.0071711238 -0.0027840682 -0.0040414394 -0.0047875354 -0.0044300337 -0.0057636453 -0.006621793
-0.004386643 -0.00393401 0.00031305055 -0.0061283517 -0.0031954674 -0.0069984565 0.002031943 0.014831309
0.018022867 0.01260443 0.011179234 0.013564193 0.012837673 0.014231434 0.017015578 0.01639526
0.012657629 -0.0024964442 -0.0011850258 -0.0066795023 -0.005572834 -0.002393201 -0.0014913884 -0.007215266
-0.006233585 -0.0049777585 -0.0056292964 -0.0022295772 -0.004057097 -0.0053474135 -0.006644665 -0.0065344577
-0.0035299892 -0.0018920887 -0.0036273955 -0.0039771697 -0.0025438264 -0.004460895 -0.0032392137 -0.0070847077
-0.0025235158 -0.0068534533 -0.005151362 -0.008547489 -0.0018846712 -0.0022757424 -0.005854881 -0.00710756
0.0052207243 0.022286573 0.014035902 0.0075229155 0.010962718 0.009956388 0.004862592 0.0034622767
0.009163702 0.003978837 0.008367476 0.007424117 0.00442193 0.008492246 0.0048292084 0.016005095
0.012433646 0.00071852154 -0.010349253 -0.006359679 -0.0035177812 -0.006044752 -0.0067591253 -0.0047761835
-0.0043219347 -0.003760619 -0.0035692237 -0.0056555443 -0.002961224 -0.0028455905 -0.003422218 -0.0016435568
-0.004781133 -0.004631631 -0.007123384 -0.0030054979 -0.003357302 -0.0037749873 -0.003654698 -0.008247664
0.00077589817 -0.0020048544 -0.0064822673 0.005592934 0.016666375 0.013808795 0.009450864 0.0075458186
0.0058086915 0.006334785 0.0093874335 0.012199447 0.0065845354 0.006605652 0.008884388 0.0120511735
0.009806167 0.009671932 0.006061465 0.0017616864 0.011094626 0.0058304984 0.01073666 0.012583856
0.00097218505 -0.0067643574 -0.004415516 -0.0039494876 -0.0067932513 -0.006460715 -0.0050565726 -0.0058150813
-0.003932773 -0.0072196363 -0.0018945596 -0.0020708262 -0.0023625637 -0.0024864553 -0.0022087758 -0.0049403748
-0.004383941 -0.0030621856 -0.0073548504 -0.0049977815 -0.0024425215 -0.001279649 -0.0023567278 0.019905956
0.014747944 0.013585233 0.006666591 0.0066863173 0.008782192 0.008558255 0.010204344 0.006518492
0.010728236 0.0036617361 0.009182057 0.0085245725 0.0063243173 0.007814251 0.009547535 0.010992996
0.009011331 0.0062427833 0.007161848 0.007720843 0.0050720205 0.0120903505 0.010882705 -0.014190662
-0.0057557262 -0.0060617826 -0.0028082486 -0.0035659818 -0.0023252899 -0.0032035373 -0.0052203075 -0.004894598
7.4511045e-05 -0.006540996 -0.0038085715 -0.007017119 -0.0032914723 -0.0053821243 -0.004389131 -0.0028623156
-0.0052866605 -0.0048783896 0.0084299985 0.019330984 0.010195679 0.008338804 0.0057963124 0.010530937
0.008747402 0.0060792323 0.008543527 0.01000028 0.006846468 0.0063250856 0.0062305927 0.011200208
0.008149552 0.009330386 0.008381143 0.0084421 0.010704613 0.010089971 0.007424953 0.0107548535
00000000: 38dc 59bb 3d2b 4dbb ff14 afba 04ff caba
00000010: f0f6 373a 9281 a2ba acdd aeba b2ad 55bb
00000020: 1e63 1c3a b508 f3ba 1325 23b9 6f6c 84bb
00000030: 41a6 9db9 4221 013a 1cc7 96bb 6699 33bb
00000040: e9ed 15bc 94bc e0bb 4cf7 13bb c95a c8bb
00000050: 497c 95bb 77c5 363c 6866 193c 6b07 103c
00000060: f830 0bbc b2b6 943a 58aa 77bb 7e53 f5bb
00000070: 0b44 9cbb ed49 acba f036 22bb 514a b6bb
00000080: 64ca 7dbb adce 72bb c18f 4b3a b6c7 69bb
00000090: df2d 94bb 9884 7fbb fc91 4dbb de60 f9ba
000000a0: 0ff4 73bb 9ad4 1bba 4a01 15bb 07e9 42bb
000000b0: df45 54bb 0b78 a0bb 797f e9ba c338 8ebb
000000c0: 1a52 72bb bffb eabb ea74 36bb 0d6e 84bb
000000d0: c2e0 9cbb d129 91bb f6dc bcbb a0fb d8bb
000000e0: d4bd 8fbb dee8 80bb ef20 a439 57d0 c8bb
000000f0: 0c6b 51bb 4f53 e5bb 592a 053b 05ff 723c
00000100: b1a4 933c d082 4e3c 1b29 373c 593c 5e3c
00000110: 1a55 523c f62a 693c 4164 8b3c 5a4f 863c
00000120: f261 4f3c 629b 23bb de52 9bba badf dabb
00000130: 529c b6bb 40d7 1cbb b17a c3ba 0a6e ecbb
00000140: 1a43 ccbb 771c a3bb f675 b8bb 191e 12bb
00000150: 65f1 84bb 5b39 afbb 7dbb d9bb 011f d6bb
00000160: 6457 67bb f6ff f7ba 99b9 6dbb eb52 82bb
00000170: 53b6 26bb b32c 92bb fd48 54bb d626 e8bb
00000180: 9261 25bb ef92 e0bb c2cc a8bb c40a 0cbc
00000190: 1207 f7ba 9f24 15bb 4dda bfbb 89e6 e8bb
000001a0: 9c12 ab3b 5592 b63c d7f6 653c ca82 f63b
000001b0: f99c 333c 1e20 233c 6156 9f3b 5de7 623b
000001c0: 5a23 163c e760 823b bd17 093c 0246 f33b
000001d0: d6e5 903b 1023 0b3c 563e 9e3b 1e1d 833c
000001e0: 7eb6 4b3c 2a5b 3c3a ea8f 29bc db64 d0bb
000001f0: 938a 66bb 0e13 c6bb a77b ddbb 8881 9cbb
00000200: 049f 8dbb b874 76bb a3e9 69bb 2552 b9bb
00000210: 1811 42bb 167d 3abb 4a47 60bb 9d6c d7ba
00000220: 0dab 9cbb f0c4 97bb 476b e9bb e3f7 44bb
00000230: 2e06 5cbb c765 77bb a883 6fbb 3621 07bc
00000240: a565 4b3a e063 03bb 3369 d4bb ee44 b73b
00000250: ec87 883c 493e 623c ccd7 1a3c ea42 f73b
00000260: d656 be3b 0794 cf3b c0cd 193c 30e0 473c
00000270: 16c3 d73b 3a74 d83b d38f 113c 4972 453c
00000280: 0caa 203c 0677 1e3c 419f c63b 63e8 e63a
00000290: 3cc6 353c c40d bf3b d1e8 2f3c 842c 4e3c
000002a0: 3cda 7e3a 8ba7 ddbb 08b0 90bb b46a 81bb
000002b0: ec99 debb 68b4 d3bb 9bb1 a5bb 708c bebb
000002c0: 7ede 80bb b392 ecbb df52 f8ba b3b6 07bb
000002d0: 3ed5 1abb ccf3 22bb 1cc1 10bb dee2 a1bb
000002e0: 2aa7 8fbb f3ae 48bb f500 f1bb 6ec4 a3bb
000002f0: b612 20bb e5b9 a7ba 5573 1abb d111 a33c
00000300: 5ca1 713c 9994 5e3c 6b73 da3b e518 db3b
00000310: 2fe3 0f3c ec37 0c3c 1f30 273c 1399 d53b
00000320: 7cc5 2f3c bdf9 6f3b 5770 163c a6aa 0b3c
00000330: 383c cf3b 5807 003c 446d 1c3c f81b 343c
00000340: 43a4 133c 4390 cc3b efad ea3b 20ff fc3b
00000350: 3133 a63b 9b16 463c 604d 323c f37f 68bc
00000360: 889a bcbb eba1 c6bb 980a 38bb 3fb3 69bb
00000370: e463 18bb 70f2 51bb 1d0f abbb dd62 a0bb
00000380: d042 9c38 da55 d6bb 3a99 79bb dcef e5bb
00000390: beb5 57bb 885c b0bb b3d2 8fbb b095 3bbb
000003a0: b93b adbb e6da 9fbb fa1d 0a3c 035c 9e3c
000003b0: c70b 273c 7b9f 083c feee bd3b f489 2c3c
000003c0: 4351 0f3c 4c34 c73b 26fa 0b3c 37d8 233c
000003d0: 5658 e03b aa42 cf3b 002a cc3b 1481 373c
000003e0: b385 053c 7ade 183c 1051 093c bc50 0a3c
000003f0: 6762 2f3c 6850 253c 054d f33b 2035 303c
